app/src/main/assets/newmodel.tflite (tflite, 721288 bytes, 8 tensors)

sequential_4/conv2d_8/BiasAdd/ReadVariableOp/resource f4 [300]
000000 67 10 f7 bb 02 2a ef b9 6d 53 b4 ba 53 e8 39 bb
       -0.007539797 -0.0004561693 -0.0013757773 -0.0028367236
000010 51 d4 36 bc 81 a0 33 3b 37 36 36 ba 64 28 10 3b
       -0.011159019 0.00274089 -0.00069508277 0.002199673
000020 6d d3 08 bb 10 52 6a 3b 1f 55 8c bb 04 f2 e3 3a
       -0.0020877973 0.003575448 -0.004282608 0.0017390852
000030 dc 18 95 bb 0d bb 1b bc b2 62 69 bb 18 cf aa 3b
       -0.0045500826 -0.009505046 -0.0035611806 0.005212676
000040 c6 04 8a 3b d4 e0 19 bb 6a 48 7b bb 13 96 18 bb
       0.004211995 -0.0023479955 -0.0038342723 -0.002328281
000050 de 57 56 3b a0 2e a0 bb 17 12 11 bc 3c 8f d5 3b
       0.0032706182 -0.0048883706 -0.008854411 0.006517319
000060 43 d6 10 bb 31 3f c3 3b 3d 11 c8 3a 01 97 2f 3a
       -0.0022100366 0.0059584607 0.0015263926 0.00066982216
000070 45 1d 8c 3b b6 1e 93 ba 42 b4 ad bb 1c c9 f2 bb
       0.00427595 -0.0011224363 -0.0053010294 -0.007409228
000080 08 1d c9 ba 85 0b 8e bb 39 87 e5 bb fb a0 e2 ba
       -0.0015343735 -0.0043348693 -0.007004645 -0.0017290408
000090 b5 db 20 bc 50 9d 9e bc ee c0 7d ba 6b ae 26 3b
       -0.009818007 -0.019362122 -0.0009679933 0.002543355
0000a0 fd b8 96 ba 93 24 a7 ba d4 07 c1 3b 0a e2 d9 bb
       -0.0011499223 -0.0012751989 0.0058908258 -0.0066492604
0000b0 ac 1e 83 ba cf e1 b3 ba 7b 1c 79 3b 31 a5 8d 3b
       -0.0010003648 -0.0013723912 0.003801136 0.004322671
0000c0 cb 84 6e 3b 8d 2d 80 3b 26 b2 b0 ba de 75 e0 ba
       0.0036395069 0.00391168 -0.0013480827 -0.0017124971
0000d0 dc 77 a4 3b 23 dc 80 3b 7c 1c 1f bb 32 42 49 bb
       0.005019171 0.0039324923 -0.0024278453 -0.0030709621
0000e0 5a 4e 10 3b 52 96 a9 bb 2c 72 5d bb 2e a1 00 3b
       0.0022019357 -0.0051753903 -0.0033789976 0.001962732
0000f0 6c 4f f8 3a 6a 0c ab bb f9 18 04 bb 07 45 87 ba
       0.0018944568 -0.0052199857 -0.0020156486 -0.0010320254
000100 fb 08 80 3a bc ce c2 bb d2 14 07 3c 2d b0 b4 bb
       0.0009768301 -0.005945055 0.00824471 -0.005514166
000110 9d 55 51 3c 83 76 9a 3a ad f5 02 3b b7 7b e3 bb
       0.012776759 0.0011784587 0.001998286 -0.006942238
000120 51 f2 2e 3a e8 4f e1 bb 2a d5 f3 3a a3 49 d0 ba
       0.0006673681 -0.0068759806 0.0018602957 -0.0015891086
000130 0a d2 e5 b9 e8 4b 9e bb dc a7 27 ba ae c9 ba bb
       -0.00043834775 -0.004830826 -0.00063955574 -0.0057003116
000140 12 f3 86 ba 04 00 e5 3b 89 a6 ad 3b bc e5 83 bb
       -0.0010295829 0.0069885273 0.0052993936 -0.004025189
000150 30 0e fd b9 4a d1 3c bc 4e 47 1f 3c 38 fd c2 bb
       -0.0004826649 -0.011524508 0.00972159 -0.005950596
000160 ef 9d 42 3b 3e b2 95 3a 4b e6 f8 3b da 44 4d bb
       0.0029696187 0.0011420918 0.0075958124 -0.0031321556
000170 28 7b 7c 3b f7 60 a5 bb 3c dc 79 bb 15 16 e2 3b
       0.0038525555 -0.0050469595 -0.0038125655 0.006899605
000180 a8 03 47 bb 2e cf 10 bc 74 82 e4 3a e5 8e cf 3b
       -0.003036717 -0.008838458 0.0017433898 0.006334173
000190 3f 8a 32 3b 64 09 ff b9 93 3a 73 3c 65 fb 28 bb
       0.0027243046 -0.00048644387 0.014845508 -0.0025784608
0001a0 3c 53 3c 3c 7e 0f 34 bb 04 35 cb 3b 1a 3c 47 3b
       0.011494454 -0.0027475054 0.0062013883 0.0030400814
0001b0 48 27 72 ba a6 75 19 3c c7 25 8c 3a c8 d5 a3 3b
       -0.0009237421 0.0093664285 0.0010692411 0.00499985
0001c0 a9 4f bf bb 21 38 9b 3b e1 01 60 3b c4 a9 02 3a
       -0.0058383537 0.0047369157 0.0034180807 0.00049844035
0001d0 ff 1f 4f 3c fb 17 cc 3b de 6b 4e 3c 75 e7 b9 ba
       0.012641906 0.0062284446 0.01259896 -0.001418336
0001e0 50 3d 46 ba d8 03 8c 3b 29 b0 e5 ba 39 7d dd ba
       -0.0007562237 0.004272919 -0.0017523813 -0.0016898281
0001f0 1a 8f 0a 3c a4 a2 1c 3b aa 36 23 ba 39 26 e5 bb
       0.00845697 0.0023900652 -0.0006226102 -0.006993082
000200 94 2a 91 3b 67 4c 11 3c 33 4b 08 3c 49 20 a4 ba
       0.0044301245 0.008868313 0.00831871 -0.0012521829
000210 65 b8 18 ba 3d 0f bc 3b 7a 89 f2 3b 3d 93 0b 3c
       -0.0005825817 0.005739121 0.0074016424 0.008518991
000220 b2 d4 c9 3b 50 6d 05 bb da 5a 98 3b df 62 bb bb
       0.0061593885 -0.0020359345 0.004649502 -0.0057185735
000230 29 24 26 3c 5e 15 8e 3b 55 7a da 3a 76 cd 50 3a
       0.010140457 0.0043360433 0.0016668538 0.00079651864
000240 bf 31 00 3c 57 9e bb 3b a8 06 ad bc cd 21 a2 3a
       0.00782436 0.0057256627 -0.021121338 0.0012369693
000250 12 4b fa 3b ef e7 26 3b db a0 c7 ba 0a 4e 00 bb
       0.0076383436 0.0025467833 -0.0015230434 -0.0019577765
000260 59 b9 d5 3b a1 c6 40 3b c8 bf 21 bb 2d 24 c0 bb
       0.0065223393 0.0029415267 -0.002468096 -0.0058636875
000270 90 9f 06 bb 2e 59 3f bb 7b 09 32 bb e9 6a 24 3b
       -0.0020541884 -0.0029197442 -0.0027166295 0.0025088137
000280 0f 95 4d bc ff f1 d4 bb bf 59 9e 3b dc f0 f2 bb
       -0.012547745 -0.0064985747 0.004832476 -0.0074139666
000290 79 96 4f 3b 20 4c 8c bb cd 0a 2f bb 6d 5f b8 3b
       0.0031675382 -0.0042815357 -0.0026709319 0.00562661
0002a0 3e d8 07 bb 10 46 43 3b ef 55 de bb c6 41 b1 3b
       -0.0020728256 0.00297964 -0.0067851464 0.005409452
0002b0 a1 d4 b2 ba 33 90 cc bb 4a e8 a0 b9 c9 71 0c bb
       -0.0013643691 -0.006242776 -0.00030690647 -0.0021430126
0002c0 dd 8b 89 3b 04 9e 1a ba 18 f4 38 ba 43 26 49 bc
       0.004197581 -0.000589818 -0.0007055416 -0.012277189
0002d0 d3 3b 14 3a df 0c f4 bb ea 76 a7 bb 7a 21 d1 3a
       0.00056546665 -0.0074478234 -0.005110611 0.0015955411
0002e0 dc aa 41 ba 15 3b 93 3b 29 22 ba 3b 51 e8 e0 bb
       -0.0007387826 0.004493127 0.0056803417 -0.006863632
0002f0 88 da a0 3b 2c ae 19 bc 54 49 9d bb f2 56 e1 ba
       0.0049088635 -0.009379905 -0.004800001 -0.0017192049
000300 13 fa 10 bb d5 6b 53 bc 46 e8 af bb 5d 47 15 bc
       -0.0022121712 -0.012904127 -0.0053682653 -0.009111253
000310 69 5d 1f 3c 07 26 ba bb 60 17 35 3c ee bd ae bb
       0.009726861 -0.0056808027 0.011052936 -0.0053327
000320 9b ee 27 3a a0 0a f4 bb 39 ee 92 3b 62 a8 5f 3b
       0.00064060994 -0.0074475557 0.0044839648 0.0034127464
000330 58 47 d8 3a 04 9f 03 3c 88 50 23 3b 5b 08 95 3b
       0.0016500754 0.008033518 0.0024919827 0.004548115
000340 b0 44 c3 3a 23 9d d1 3b 61 46 d2 bb de c0 50 bb
       0.001489779 0.006396906 -0.006417081 -0.003185324
000350 22 ac 14 3a 7d 72 81 bb 2e 22 8f bb a3 71 eb bb
       0.0005671402 -0.0039504156 -0.004368088 -0.0071851774
000360 10 2b ed ba 39 e9 c6 ba b7 41 44 3b a6 b4 8b bb
       -0.0018094499 -0.0015175707 0.0029946396 -0.0042634783
000370 6b 7b 48 3b f7 9d 77 3b d8 03 f7 3b ed 92 ba bb
       0.003059114 0.0037783363 0.0075383 -0.0056937844
000380 6d de 66 bb d4 f7 03 3c ba 1c e7 bb 61 59 44 3b
       -0.003522779 0.008054692 -0.007052985 0.00299605
000390 61 02 ca bb 48 6b f8 bb 7c 64 2b bc f5 6f b2 ba
       -0.0061648344 -0.0075811483 -0.010460969 -0.0013613688
0003a0 48 23 38 bb bb 74 d8 bb ee bb 2f bb f0 d6 a0 3b
       -0.00280972 -0.006605712 -0.0026814896 0.004908435
0003b0 03 4c 76 3b 88 06 16 3b 65 cc f0 ba 12 a6 97 bb
       0.0037581928 0.0022892077 -0.0018371461 -0.0046279514
0003c0 05 0b 09 bc 91 62 c0 bb 2d 0f 1c 3b 65 bd db bb
       -0.008364444 -0.005871125 0.0023812756 -0.006705927
0003d0 f2 03 49 ba 57 03 7b 3b a9 76 8c 3c 4c f9 9f ba
       -0.00076681294 0.0038301551 0.017146425 -0.0012205034
0003e0 a0 26 37 bc 86 d7 a0 bb 4b 96 91 bb 9d 37 0d 3a
       -0.0111786425 -0.004908505 -0.004442965 0.000538701
0003f0 a8 7c d1 3a 67 c2 e3 ba 9d e6 7c 3b 0a a7 6a 3a
       0.0015982585 -0.0017376662 0.0038589605 0.00089512824

sequential_4/conv2d_9/BiasAdd/ReadVariableOp/resource f4 [30]
000000 3f 90 de 3b 39 70 8e ba fe fa 3f 38 aa 89 f6 39
       0.006792098 -0.0010867185 4.5771703e-05 0.00047023344
000010 b2 64 58 bb 67 76 d0 3a 05 1a 39 bc e9 b2 c7 bb
       -0.0033019003 0.0015904427 -0.011297707 -0.006094326
000020 7a 73 d4 ba 2e 91 91 b9 ae fd 01 bc 3b bc 72 bc
       -0.0016208731 -0.00027764722 -0.007934017 -0.014815385
000030 c8 b9 c4 bb fc 2c 50 bb ab 3d c5 bb 31 f3 6b bb
       -0.006003592 -0.0031765094 -0.0060193143 -0.0036003108
000040 c7 1e d4 3b 14 d1 74 3a d4 23 3a 3b 24 eb c0 bb
       0.0064733955 0.00093390164 0.0028402703 -0.005887406
000050 aa ba 82 ba a4 ea b3 bb c3 d8 2b 3b ac f0 12 3c
       -0.0009973843 -0.005490618 0.002622173 0.008968513
000060 8a b6 19 3b f9 65 ca bb ce 0f 99 3b 93 9e 0b 3c
       0.002345475 -0.006176707 0.0046710735 0.008521694
000070 1a 51 ef bb 38 e5 03 bb
       -0.007303369 -0.0020125639

sequential_4/dense_8/BiasAdd/ReadVariableOp/resource f4 [30]
000000 92 f3 ff 3b 5f 42 6f b9 af c6 c4 bb 33 da 2e bb
       0.0078110183 -0.00022817541 -0.0060051302 -0.002668035
000010 2d c7 c4 bb a9 11 52 3a cd 76 cf 36 84 fd ad 3a
       -0.006005189 0.0008013496 6.182911e-06 0.0013274406
000020 9b 64 16 3c 98 f6 da ba bf c8 c4 bb ef 97 44 bb
       0.00917926 -0.0016705571 -0.006005376 -0.0029997786
000030 dd 6e 28 3c fa d6 fd bb 2e 65 be b9 6d c8 c4 bb
       0.010280338 -0.0077465745 -0.0003631501 -0.006005338
000040 6b c5 c4 bb bf 94 e0 38 00 00 00 00 6a 48 23 bb
       -0.0060049794 0.000107088585 0.0 -0.0024914988
000050 95 c8 c4 bb bd be c4 bb c8 c6 c4 bb 7c c2 05 bc
       -0.0060053566 -0.006004183 -0.006005142 -0.0081640445
000060 3a 1b b6 bb b0 33 af bb a5 a0 c2 bb 4e 14 b6 bb
       -0.005557445 -0.005346738 -0.0059395605 -0.0055566197
000070 a0 c7 c4 bb 9a b1 19 bb
       -0.0060052425 -0.0023451806

sequential_4/dense_9/BiasAdd/ReadVariableOp/resource f4 [3]
000000 ee 46 1d bb 1a 8c 1c bc 86 fb 20 3c
       -0.0023998576 -0.009554887 0.009825593

sequential_4/dense_8/MatMul f4 [30, 2520]
000000 ab bb 0c 3d 7f 93 22 3d 19 d5 a6 bc 31 ac 25 3d
       0.03435866 0.039691444 -0.020365285 0.040447418
000010 be cf 4d bc 37 c8 17 3d 55 67 1e 3c c4 0f 01 bd
       -0.012561737 0.037056174 0.009668191 -0.031509176
000020 a4 1c 95 bc 0f 80 92 3c 8a 11 88 bc 75 f1 93 bc
       -0.018202133 0.017883329 -0.016609926 -0.018059472
000030 e3 df b9 bc ef 6d f1 3c cc ad f6 3c 17 fe 3e 3d
       -0.022689765 0.029471366 0.03011217 0.046629038
000040 df 21 27 3d e2 cd ef 3c 56 04 0b 3d 10 ec 82 3c
       0.040803786 0.029272977 0.033939682 0.015981704
000050 fd d6 f9 ba bd 2d a0 bc 1d b6 ae bc c8 77 54 3c
       -0.0019061264 -0.01955306 -0.021327073 0.012968011
000060 39 8f 0b 3d d4 1a 10 3c 4e 6b 7b bc 81 ab 06 bc
       0.034072135 0.008795459 -0.015345408 -0.008219601
000070 7f 37 45 3d 8e 7a 9b 3c 1d 3c 7a ba 0f a0 e4 3c
       0.04814863 0.018979337 -0.0009545701 0.027908353
000080 c7 4b a2 bc 72 9a dd 3b 14 98 8f 3c 8d 6f 98 bc
       -0.019811524 0.006762796 0.017528571 -0.018607879
000090 22 bc 9e 3c 49 fd aa bc bc 30 cd 3b f5 ac b0 ba
       0.019376818 -0.020872729 0.006261913 -0.001347928
0000a0 30 29 b8 bb ac 12 33 3d f4 d5 37 bc 28 3c bb 3c
       -0.0056201443 0.04371898 -0.011220444 0.022855833
0000b0 cd e1 d4 bc 7e 62 ac bc 6c 46 46 3d 9d db 3d bb
       -0.025986576 -0.021043058 0.048407003 -0.002897001
0000c0 ab e9 07 3c 70 ca 22 3d 39 ea 42 3d 83 73 16 3d
       0.008295457 0.03974384 0.047586653 0.036731254
0000d0 cc 63 03 bd ad 64 79 3c 28 b9 c6 bc c0 00 a9 bb
       -0.032077596 0.015221757 -0.024258211 -0.00515756
0000e0 e0 7e cd bc 7e c8 c7 3c b6 49 8f bc 15 f0 1e 3d
       -0.025084913 0.024387594 -0.017491203 0.03880318
0000f0 81 cc 26 3d 02 9c de bc 74 c0 20 bd 74 c8 00 3d
       0.040722374 -0.027174 -0.039246038 0.031441167
000100 a5 67 bd 3c 0d a4 86 3c 4b 6a 10 bd c7 3b 15 bd
       0.02312071 0.016435647 -0.03525762 -0.03643396
000110 b8 df 45 bd 19 72 05 bd ff d2 b4 3c 8a d5 de 3c
       -0.048309058 -0.032579515 0.022073267 0.027201433
000120 3a 0f 42 3d 85 3c c2 3c d0 74 54 bc 0c cd 9c 3c
       0.047377802 0.023710499 -0.012967303 0.019140743
000130 da 77 51 3d fd 44 de ba 70 11 18 bd db 0c 25 3d
       0.05113969 -0.0016957816 -0.037126005 0.040295463
000140 f3 1b 03 bd a4 52 25 bd 8e 73 37 3c b7 0d 17 3d
       -0.032009076 -0.040362015 0.011196984 0.036878314
000150 96 c1 4e 3c b6 d0 42 3d 7b 00 06 3d 2c 33 17 3d
       0.012619397 0.047562324 0.032715302 0.036914036
000160 ec ea 91 3b 3f a3 2c 3c c6 f3 6d bc a0 9f 0d 3c
       0.0044530537 0.010536968 -0.014523452 0.008644015
000170 5c 2a 0a 3d 70 54 37 3d ad ef 12 bd a9 04 34 bc
       0.033731803 0.04475826 -0.035873104 -0.010987439
000180 5a ef de bc 90 6c 0b bd ea da 02 bd 89 3c 18 3d
       -0.027213741 -0.03403908 -0.031947054 0.037167106
000190 15 e8 0f bc 0d 09 32 bb a8 30 6c 3c e1 00 59 3c
       -0.00878336 -0.002716604 0.014415897 0.013244838
0001a0 3c 98 13 3d 41 8b f5 ba df 9d b8 3c b0 e5 9d 3c
       0.036033854 -0.0018733517 0.022536216 0.019274563
0001b0 f9 da d7 3c 59 67 bc 3b 2d 45 2c 3d 54 a8 14 3d
       0.026349531 0.0057496247 0.04205816 0.036293343
0001c0 ca d5 4a bc 23 08 46 3d d2 5b 15 3d 46 97 a5 bc
       -0.012380073 0.048347604 0.03646452 -0.020213734
0001d0 0b 3c 01 3c d8 c4 68 3d 37 6a fa bc 77 f9 af 3c
       0.0078878505 0.05682835 -0.030568225 0.021481259
0001e0 56 47 20 3d 4d 80 45 3b 08 83 68 3d 29 8e f2 3c
       0.03913053 0.0030136288 0.056765586 0.029608803
0001f0 03 6c 80 bc a5 b5 aa bc 61 4b a6 3c 55 bd 23 bd
       -0.015676504 -0.020838568 0.020299615 -0.039975483
000200 7f 04 7b bc 50 97 19 3d af df 85 3d 3f 8d b4 3c
       -0.015320896 0.03749782 0.06536805 0.022040008
000210 8e d7 37 3d e1 15 0c 3d 74 6b 15 3d ce 8c e0 bc
       0.044883303 0.034200553 0.03647943 -0.02741089
000220 4c c2 00 bd 57 0d b0 3c d5 c3 37 bb d0 18 7e bb
       -0.031435296 0.021490736 -0.002804031 -0.0038772114
000230 bc 7a 32 3d 3c 19 4a bc 0a 20 99 3c 60 1e 14 3c
       0.04357408 -0.012335118 0.018692035 0.009040445
000240 09 83 04 bb 66 ae 27 3c 39 a9 1a 3c 72 d8 1c bc
       -0.0020219705 0.010234451 0.00943976 -0.009573089
000250 f4 73 bf bc 9b e7 98 ba 76 18 99 3c da 4e a8 ba
       -0.02337072 -0.0011665703 0.018688422 -0.0012840882
000260 82 b2 3b 3d e3 d6 d7 3c b3 a7 54 3d b3 2a 77 3c
       0.045824535 0.026347583 0.051917743 0.015085864
000270 38 d9 e5 3c 25 7c 53 bb d1 e5 52 3d b5 bd 0e 3a
       0.02805768 -0.003227004 0.0514887 0.00054451387
000280 ea 77 91 3a 2d 05 04 ba f0 82 eb bc 46 9d fb bc
       0.0011098359 -0.00050361716 -0.02874896 -0.030714642
000290 5d fb 07 bd d6 4b 02 3d 2d 79 54 3d 5f 27 c3 bb
       -0.033198703 0.031810604 0.051873375 -0.005955621
0002a0 7e d2 b9 bb 75 dc 83 bc bd 3e 18 3d 10 7e f8 bb
       -0.0056708446 -0.016096333 0.037169207 -0.007583387
0002b0 29 98 2b 3d 3b e3 6a 3d dc 94 0a 3d 1e b6 16 3d
       0.041893158 0.05734561 0.03383337 0.036794774
0002c0 62 49 7e 3d b0 11 98 3c f4 bc 0e 3d 50 67 0c 3c
       0.062081702 0.018563122 0.03484817 0.0085695535
0002d0 b6 e9 55 3d c1 5e e6 bc 49 34 9a 3c 5e 9a 5d 39
       0.052224837 -0.028121354 0.01882376 0.00021133709
0002e0 cd 3d ed bc d0 18 06 bd 89 a2 11 3d 96 73 a5 bc
       -0.028960133 -0.032738507 0.035555396 -0.020196717
0002f0 f2 5a 32 bd c0 55 83 3c 67 26 1c 3d 2c 0f 0d bc
       -0.043543763 0.0160321 0.03812256 -0.008609574
000300 78 2f a4 3c 66 0d 40 3d b8 44 2a 3d f3 a0 ed bb
       0.020042166 0.046887778 0.04156944 -0.0072518527
000310 84 b2 e6 3c 53 6e 36 3d e3 fa 09 3d 3d 32 3d 3b
       0.028161295 0.044538807 0.03368653 0.0028869056
000320 59 72 85 3b 78 e4 46 3d c3 1f b8 3c eb 59 42 3c
       0.004072469 0.04855773 0.022476083 0.011862258
000330 62 0b 46 3d 7c c5 f8 3c 04 37 8a 3c 70 9e 6e 3b
       0.0483507 0.030367605 0.016871937 0.0036410354
000340 44 3f 41 3d 7b 2c 09 bc 78 c7 b3 3b d1 c6 03 3d
       0.047179475 -0.008372421 0.005486425 0.032172028
000350 fb 36 6f 3d 21 da 8d bc a0 73 13 3d b1 da e0 3c
       0.058402043 -0.017315926 0.03599894 0.02744803
000360 a3 5b 44 3c 21 3a 99 3c 19 43 e1 bb d9 a2 c8 3c
       0.0119847385 0.018704476 -0.0068744537 0.024491714
000370 e6 41 7f 3d 82 ac c0 3b 30 49 b5 bb e1 51 81 3d
       0.062318705 0.0058799395 -0.0055324063 0.06314445
000380 58 80 28 bd b0 3b 7a 3d be 64 1b bd 57 10 93 b9
       -0.041138023 0.06109208 -0.037937872 -0.000280502
000390 97 57 d8 bc 09 d5 d4 bb 37 19 db 3c 37 40 fe 3c
       -0.026408954 -0.0064951223 0.026745422 0.03103648
0003a0 cc 6b 53 3d ef 48 34 3d f7 e6 6f 3d 6b 4e d9 bc
       0.051616475 0.044014867 0.058569875 -0.02652665
0003b0 d7 9d 2c bc dc 5e ca bc 3a 17 99 bb 18 31 4a 3d
       -0.010535679 -0.024703436 -0.0046719583 0.049363226
0003c0 dc 27 4e bd 69 c9 e6 3c 13 12 1c bd 71 d2 19 3d
       -0.05033098 0.028172212 -0.038103174 0.03755421
0003d0 67 4a 15 3d 10 3d 01 bd 4f a2 2e bd de ba 29 3d
       0.03644791 -0.031552374 -0.04263526 0.041437976
0003e0 64 58 54 3d 45 b2 5a 3d d7 61 9e 3c fe 92 df 3c
       0.05184211 0.053392667 0.019333763 0.027291771
0003f0 1d bd b1 bc 71 0e 23 bd c8 2c 38 bc 25 99 3d 3d
       -0.021696622 -0.039808694 -0.011241145 0.046288628

sequential_4/dense_9/MatMul f4 [3, 30]
000000 fe c4 86 3e 8c 11 19 bd 19 b2 d6 3d 85 e2 27 3e
       0.26322168 -0.03737025 0.10483188 0.16395004
000010 95 1f 7b bd a4 14 3f bb a4 b7 c9 be b7 a3 82 bd
       -0.061309416 -0.002915659 -0.3939792 -0.063788824
000020 bd 38 92 3c cd 74 bb 3e a2 96 d4 be 56 3d 18 3e
       0.01784932 0.3661255 -0.41521174 0.14867148
000030 84 d4 bd be 79 d9 7a be 13 ce 89 bc c6 34 7d be
       -0.370762 -0.24497022 -0.016821897 -0.24727163
000040 d3 b2 bd be 03 67 b5 3e 64 d9 37 be 05 e9 71 bd
       -0.37050495 0.35430154 -0.17954022 -0.059060115
000050 1a a5 84 3e c9 ed 61 3e 97 59 03 3e be ab 9f be
       0.25907212 0.22063364 0.12827145 -0.31185716
000060 1a dd 9a 3e e1 a3 28 3e 14 61 16 3e 34 81 25 bc
       0.30246812 0.16468765 0.1468547 -0.010101605
000070 04 f1 42 be bb 4f 94 3e 01 5d a7 be fd ef c8 3e
       -0.19037253 0.2896708 -0.32688144 0.39245597
000080 98 28 61 3e e3 e1 b1 be 96 1b b4 be 3d e8 6a 3e
       0.21988142 -0.3474265 -0.35177296 0.22940154
000090 00 6b 82 3c c3 0d c7 be d0 cf 98 be e7 52 db bd
       0.015920162 -0.38877687 -0.29846048 -0.10709172
0000a0 a9 59 d6 bd 72 87 74 3e cc 7a af 3e cc d8 08 be
       -0.1046632 0.23879793 0.34273374 -0.13363951
0000b0 8b 97 82 be be 4f 32 be 35 d1 e2 3d 2e f5 5e 3d
       -0.25506243 -0.17413232 0.11075059 0.05443304
0000c0 a0 6d b0 be 25 44 e6 3e f0 71 b8 be 89 79 9e 3e
       -0.34458637 0.44973865 -0.36024427 0.309521
0000d0 bb 26 6e 3d 5e 9d 01 be 66 e6 70 3e 59 9e b3 be
       0.058142405 -0.12657687 0.2352539 -0.35081747
0000e0 57 9c ae 3d ce ce 84 bb 39 6e 91 3e 44 0f e0 3e
       0.08525913 -0.0040529734 0.28404406 0.43761647
0000f0 d6 ee 15 bd d4 cd 95 bc 83 b2 b8 3e d4 0c a5 be
       -0.036604725 -0.018286623 0.36073694 -0.3223635
000100 b1 7c 7d ba ce 2f af bd 86 59 5d bd cc bd b2 be
       -0.00096697645 -0.0855404 -0.054040454 -0.3491043
000110 da c4 12 be 5b ad f7 bd 60 4b af 3e 24 09 e2 be
       -0.14332905 -0.12093612 0.34237194 -0.441476
000120 dd 71 b2 3e e9 05 12 be 05 e1 c4 be 7f cd 6e 3e
       0.34852496 -0.14260067 -0.38452926 0.23320578
000130 3f 74 0e 3d f5 07 51 3d dc df d7 bd 62 df 8f be
       0.03477883 0.05103298 -0.10540745 -0.28100115
000140 93 7f cd 3e fc 2e bd 3e f1 0a b7 3e 94 1d b6 3e
       0.40136394 0.3694991 0.35750535 0.3556944
000150 e9 ef b9 3e 1d c3 a3 3e 92 b6 cd 3d 32 38 e2 3c
       0.3631585 0.31984797 0.10044588 0.027614687
000160 f9 62 b8 3e 9f c3 8e be
       0.3601301 -0.27883622

sequential_4/conv2d_8/Conv2D f4 [300, 5, 5, 3]
000000 e2 fc d3 bc 23 6b 0b 3b a9 ed 13 3c f8 84 ce bc
       -0.02587742 0.0021273575 0.009028831 -0.025209889
000010 72 ac 61 b9 f8 95 b5 3c 1a c4 5e 3d 9c 0d 40 3d
       -0.00021521913 0.022166237 0.054386236 0.04688798
000020 c4 23 42 3d f8 53 07 3d 68 4f 39 3d e3 19 e3 bb
       0.04739739 0.033039063 0.045241743 -0.006930576
000030 42 cc 93 bc 12 d8 9e bc 91 26 87 bc b7 3c 92 bc
       -0.018041734 -0.01939014 -0.016497882 -0.017851217
000040 33 f9 b6 bc d9 a6 03 bd e7 0f 82 bc b8 e8 04 bd
       -0.022335624 -0.03214154 -0.015876723 -0.0324485
000050 cd 22 34 bd 8b ce 8b 3c 8e 42 f9 3b 5b c0 a6 3b
       -0.0439785 0.01706626 0.007606811 0.0050888485
000060 c1 a2 87 3c e2 54 f0 3c 78 5b eb 3c 94 d8 6e 3c
       0.0165571 0.02933735 0.02873014 0.014578003
000070 82 b8 3f bc 2a 3d ee 3a c2 05 95 bc c6 59 40 3a
       -0.011701705 0.0018176187 -0.018191222 0.0007337596
000080 2c 62 d1 3c 37 88 a0 bc c8 db b1 bc cf 93 9d bc
       0.025559507 -0.019596202 -0.021711245 -0.01923552
000090 cd 3a 18 3d 99 27 05 3d 55 0a 0d 3c 4d 14 43 3c
       0.03716545 0.032508466 0.00860842 0.011906696
0000a0 d8 4c dd 3b 02 bf 60 3d 0a fd 03 3d 19 ca 02 3d
       0.0067535453 0.05486966 0.03222374 0.031931017
0000b0 49 b5 aa 3b f9 6e 70 3b 68 8a ac 3b 6b 9a 62 bb
       0.005209599 0.0036687239 0.0052655227 -0.0034576904
0000c0 5c 9d ca 3b b7 0e 21 3c 2c ef 92 bc 5b f6 cc 3c
       0.0061833095 0.009830168 -0.017936312 0.025019815
0000d0 e9 15 94 3c 59 a3 c1 3b c1 01 be 3c de af ff 3c
       0.018076854 0.005909365 0.023194196 0.03121179
0000e0 93 ee 2a 3d a8 6a 15 3d 39 64 fb 3c f1 ab 23 3d
       0.04173143 0.03647867 0.030687438 0.039958898
0000f0 a9 9d f0 bb 38 d0 10 bc 6d 60 1b bd 10 5a af 3a
       -0.0073430133 -0.008838706 -0.037933756 0.0013378281
000100 13 4b a6 bc 38 32 e3 bc 16 16 b1 b9 fe 36 1b 3c
       -0.02029947 -0.027733907 -0.00033776526 0.00947356
000110 f2 97 53 bc 8d ba c4 3c 1a 2b 9a 3c 2e f1 0a 3d
       -0.012914645 0.024014736 0.01881938 0.033921413
000120 d1 6b 8c 3c b1 f1 85 bb 72 e9 8f 3a 18 e5 a5 3c
       0.017141255 -0.0040876498 0.0010979606 0.020250842
000130 b4 88 ee bc 2b f9 8a bc 70 f0 0d bd fe f7 fd bc
       -0.02911792 -0.016964516 -0.034653127 -0.031002041
000140 20 7c 13 bc ce a8 3b bb 5f 62 3d 3a b7 76 30 3c
       -0.009001762 -0.002863455 0.0007224436 0.010770491
000150 a7 f2 c7 3b a4 e3 8a bb cb f7 91 3b 34 4a 10 3d
       0.0061019245 -0.0042385627 0.004454588 0.035227016
000160 02 09 f6 3c cf d5 54 3d d8 16 14 bd e1 41 d1 bc
       0.030033592 0.051961716 -0.036154598 -0.025544109
000170 39 00 07 bc 88 c1 e7 bc a1 7a a0 bc c8 eb 02 bd
       -0.008239799 -0.028290525 -0.019589724 -0.03196314
000180 ff 81 12 bc 5b d3 0b bc 27 0c 27 bc 02 05 d7 3c
       -0.008942126 -0.008534278 -0.010195768 0.026247505
000190 2f 01 34 3b 5c 24 d3 3c 6e 06 e8 3c c1 49 36 3d
       0.0027466526 0.025774173 0.028323378 0.04450393
0001a0 71 97 49 3d c8 30 dc 3b d8 68 73 3c 44 4f 87 3b
       0.04921669 0.0067196824 0.01485654 0.0041293222
0001b0 04 fc 1a bd ec 75 0f bd 5c d0 1b bd 06 47 1b 3c
       -0.037837997 -0.03502457 -0.038040504 0.0094773825
0001c0 dc b1 59 3d 6c 15 41 3d 21 9f 5a 3d 1f a2 26 3d
       0.053148136 0.04713957 0.053374413 0.040681954
0001d0 48 dc 1e 3d 27 22 06 3d 3b 53 04 3d ab 37 7e 3d
       0.038784295 0.032747414 0.032305937 0.062064808
0001e0 31 ab 14 bb 83 17 0f 3d 2e d1 34 3d 72 31 fb bb
       -0.0022685046 0.034934532 0.0441448 -0.0076658064
0001f0 f8 28 b3 bc 73 62 c5 bb 24 ce 5d 3d 93 20 f0 3c
       -0.021870121 -0.006023699 0.05415167 0.029312408
000200 87 2e 21 3d 27 ef 56 3d 33 46 8b 3d 04 38 9d 3d
       0.039351013 0.052474167 0.06800499 0.076767
000210 07 db bd 3c 82 b8 48 3b ca 31 c9 3c e2 27 a7 3b
       0.02317573 0.0030627553 0.024559874 0.00510119
000220 2b 08 9a 3c a7 d8 e4 bc f5 1b a5 3b d4 15 1b bd
       0.018802723 -0.02793534 0.005038733 -0.037862614
000230 22 02 17 bd af a3 14 3d 9a 24 db 3a 3e 77 36 3d
       -0.03686727 0.036288913 0.0016719282 0.044547312
000240 50 97 04 3d 0f 21 0c 3d 91 c9 34 3d 90 ba 2e 3a
       0.032370865 0.034211215 0.04413754 0.0006665373
000250 4e a0 0b 3d 51 0c 03 3d d4 48 84 bc c9 a9 fe 3b
       0.034088425 0.031994168 -0.016148008 0.007771705
000260 9a a8 21 3c 27 79 28 bc 9e 0c 86 bb e9 46 3c bc
       0.009866858 -0.010282791 -0.0040908596 -0.011491516
000270 21 f0 05 3d 66 2e 1a 3d 87 2d be 3b 28 29 ad 3c
       0.032699708 0.037641905 0.005803767 0.021137789
000280 9f 57 55 3c e3 ed ed 3c 0a b6 ac b9 44 53 1d 3c
       0.013021379 0.029044097 -0.00032942026 0.009602372
000290 1e 62 ae 3b 42 10 1a 3d dd 42 80 3c 6d 56 cb 3c
       0.005321755 0.03761316 0.015656883 0.024821484
0002a0 16 a3 00 bb 4a 1f 2f 3c b2 f4 ff bc f3 1d e7 3c
       -0.0019628457 0.010688612 -0.03124461 0.028212523
0002b0 31 60 06 3d f9 20 40 3c 72 3c ef bc ac a1 47 bc
       0.03280658 0.011726611 -0.029203627 -0.012184542
0002c0 04 6b db bc 4a 7a fc 3c a3 b4 02 3d 99 ee 17 bc
       -0.026784427 0.03082003 0.03191055 -0.009273195
0002d0 b3 20 17 3c db 88 9a bc 9f 02 e6 bc 94 96 22 3a
       0.009224105 -0.018864086 -0.028077422 0.00062022475
0002e0 2b 0a b2 bc 27 32 0c bd 5e 0e cb 3c 18 07 e8 39
       -0.021733364 -0.034227517 0.024787124 0.00044255774
0002f0 3b 27 a9 3c 98 41 1b 3d 52 70 d0 ba be 4d ea 3c
       0.02064859 0.037904352 -0.0015902615 0.028601523
000300 bb ad 2b 3d 31 a5 14 3d a6 ed fe ba f7 dd aa ba
       0.04191373 0.03629035 -0.0019449487 -0.0013036121
000310 3f e8 15 3b f7 74 26 bd fb f2 98 bc b0 e7 c8 ba
       0.0022874025 -0.04063889 -0.01867055 -0.0015327837
000320 94 b9 1f bd 3c f0 26 3d 7d fd 41 3d 2c 09 ef 3c
       -0.03899534 0.04075645 0.047360886 0.029179178
000330 3b f1 65 3d bf d9 09 3d 39 d2 2e 3d 92 d7 2b bc
       0.05613826 0.033654924 0.042680953 -0.010488408
000340 cd da f1 3c 63 19 c9 3c 59 47 8f 3c 31 67 77 3c
       0.029523278 0.024548238 0.017490076 0.015100286
000350 77 c6 3c bc 47 94 f6 bc 83 7c 8b bc 72 bd 90 bb
       -0.011521927 -0.030100001 -0.017027145 -0.004417115
000360 18 a2 aa bc b0 b6 1c 3c d2 a1 de bb 14 e9 94 bb
       -0.020829245 0.0095650405 -0.006794193 -0.0045443866
000370 d6 3a a2 3b 25 0a 0b 3d 96 80 5a 3c e8 40 1a bc
       0.0049508614 0.03394522 0.013336321 -0.009414889
000380 63 bc c3 ba de 35 70 3c 02 23 8a bc af f2 03 3d
       -0.0014933463 0.01466128 -0.016862396 0.032213863
000390 51 82 81 3c bf a4 4d 3c db 69 41 3c 20 a7 de bc
       0.01580921 0.012551486 0.011805023 -0.0271793
0003a0 6b 28 86 bc 68 68 8a ba c0 67 b0 bc 26 55 dc bc
       -0.016376695 -0.001055968 -0.021533847 -0.02689607
0003b0 05 4e 13 bb 87 90 11 bd fa 66 78 3c 67 05 d0 bc
       -0.0022476923 -0.035538223 0.01516127 -0.025393201
0003c0 2a aa cc bc 25 55 1b 3c b9 d9 58 bc b0 de a3 bc
       -0.024983484 0.009480749 -0.013235503 -0.020003647
0003d0 eb ea 54 3b da 2e 6c 3b e4 1e 2d bd b6 b0 c9 bb
       0.0032488655 0.0036038668 -0.042265788 -0.006155099
0003e0 bc 8a 1f bd 5c 61 d7 3b 16 1c db ba 70 fe d0 bc
       -0.038950667 0.0065728854 -0.0016716744 -0.02551195
0003f0 fb d5 c1 bc ff 5c 3b 3c 5c 44 4f bc 51 d3 4a 3d
       -0.023661604 0.011435746 -0.0126505755 0.049517933

sequential_4/conv2d_9/Conv2D f4 [30, 3, 3, 300]
000000 bb 12 4d bd 37 b6 fd bc 34 75 0b 3c 3b aa 4c bd
       -0.05006669 -0.030970676 0.00851183 -0.049967032
000010 f7 27 c6 3c 88 f6 5e bc 43 93 5d 3c b1 a1 e6 3c
       0.024188979 -0.013608582 0.013523879 0.028153272
000020 d3 f8 b3 bc ab 47 a2 bc e2 f6 c9 bc 29 e6 cf 3c
       -0.021969235 -0.019809565 -0.024653856 0.025378304
000030 f3 44 6a bc 1d 26 c8 bc d0 72 c4 bc 4b fb 48 bd
       -0.014298665 -0.024432236 -0.023980528 -0.049067777
000040 66 b4 2e bc 78 af f6 bc f5 83 db bb 79 fa a0 bc
       -0.0106631275 -0.030112967 -0.00669908 -0.019650685
000050 b4 20 8d bc 0f 7f 07 3d 03 de 20 3b 92 45 f5 3c
       -0.017227508 0.033080157 0.0024546392 0.0299404
000060 fb 82 23 bb e1 6f 11 bd 1d e4 17 3c b1 ef 00 bd
       -0.0024949897 -0.035507087 0.009270695 -0.031478588
000070 de 0b 13 bd 01 21 69 bc 18 44 2d bd 43 a0 a7 bc
       -0.03589999 -0.01422906 -0.042301267 -0.02046216
000080 aa a8 ad 3b ba 5d 22 3c f2 0b 1a 3d 7b dc 7f bb
       0.0052996473 0.0099100415 0.03760905 -0.0039041329
000090 15 9c 0c 3d b3 c2 3f bc 73 b1 ec 3c 32 97 b1 3c
       0.03432854 -0.011704135 0.028893208 0.02167854
0000a0 c2 45 ea 3c 61 35 66 bc 6e a6 4f bd 4e 85 48 bd
       0.028597716 -0.014050812 -0.05069583 -0.048955254
0000b0 f8 36 00 3d 93 a4 b0 bc 32 8b 92 3b 0d ab 11 3d
       0.031302422 -0.02156285 0.00447216 0.035563517
0000c0 23 d5 d2 3c 2c a2 f7 bc bb 38 3e bb 00 16 53 bd
       0.025736397 -0.030228697 -0.0029025513 -0.051534653
0000d0 95 0e 65 3c e0 af df 3c eb 0b 92 3c 64 ee 39 bd
       0.013980527 0.027305543 0.017827949 -0.045393363
0000e0 9a 46 65 bc 51 9a 18 bd 85 51 0c bd a9 d4 0c 3d
       -0.0139938835 -0.037256543 -0.03425743 0.034382496
0000f0 42 ba 00 3d 6f 34 b4 bb e6 51 b1 bc 28 e2 41 ba
       0.03142763 -0.0054994146 -0.021645498 -0.00073960656
000100 61 c4 63 3c 97 5b 19 bd 9f ea f7 3c 04 70 54 bd
       0.013901801 -0.037440863 0.030263243 -0.05186464
000110 5c 7f 69 ba f3 14 2f 3d 5d 1d 0b 3d 50 5e 2e bd
       -0.00089072227 0.042744588 0.03396355 -0.042570412
000120 ad 1e cc bc c7 71 d2 3c 3d 76 80 bb 4e 21 0c bd
       -0.024916971 0.025689019 -0.003920345 -0.03421145
000130 a2 2a 6d bc 22 cd ce 3c 9a 64 1b 3d e5 f1 89 3b
       -0.0144754965 0.0252443 0.037937738 0.0042097443
000140 b5 21 64 3c 3b e1 c5 3b df 6b 1e 3c a6 c3 b9 b9
       0.013924052 0.0060388125 0.009669273 -0.0003543172
000150 7b 5d 84 bc e3 96 18 3d 9d 97 34 bb 02 45 1d bd
       -0.016157856 0.03725327 -0.002755619 -0.03839589
000160 c9 09 45 ba 6b 60 97 bc 14 fc 78 bc d5 5f 41 bd
       -0.0007516412 -0.018478593 -0.015196819 -0.047210533
000170 24 54 5a bd d3 10 48 3c 5c 9e eb bc 25 54 02 3d
       -0.0533029 0.012211042 -0.028762035 0.031818528
000180 fa e8 f3 3c 4a f4 2d bc a3 7a a2 bc 6a 1d b8 3b
       0.029774178 -0.010617325 -0.019833868 0.005618741
000190 78 54 94 bc 23 50 7a 3c ba 2f 76 bc bf 42 da 3b
       -0.018106684 0.015277895 -0.015026027 0.006660789
0001a0 d2 b3 da 3b ce 2b 0f bd 18 f4 4b bd ed db 35 3d
       0.0066742683 -0.034953885 -0.049793333 0.04439919
0001b0 2e 78 06 bd 5f 87 12 3c 9d bf ad bc 5d d8 88 bc
       -0.032829456 0.008943408 -0.021209532 -0.016704733
0001c0 42 47 93 3c 72 b5 2e 3b 99 37 cb 3b 8a 39 93 3c
       0.017978314 0.0026658443 0.006201696 0.017971773
0001d0 6b 9a dc 3c 24 94 19 bd 85 0e 10 bd ed 4b ab 3c
       0.026929101 -0.037494794 -0.035170097 0.020910228
0001e0 05 53 e2 3c a6 48 16 bd b4 d6 22 3c 19 b6 c9 bc
       0.027627477 -0.036690377 0.0099388845 -0.024622964
0001f0 8f 4d be bc 6a 55 f7 3b 7f 2b 0f bd e9 10 1c 3c
       -0.023230342 0.007548024 -0.03495359 0.009525516
000200 94 b8 1c bd 00 79 62 bd 57 df ed bb df 37 1d bc
       -0.038261965 -0.055291176 -0.00725929 -0.00959584
000210 d7 32 99 3a 86 83 80 3c 9e 4d cd bc 41 c1 00 bd
       0.0011688125 0.015687715 -0.025061425 -0.0314343
000220 33 1a 34 bd eb 7a 65 bc 6b 40 20 bb 95 a0 c7 bb
       -0.043970298 -0.014006357 -0.0024452459 -0.006092141
000230 09 38 cd bc 43 2b 80 3b a1 9e d8 bc 53 74 11 3d
       -0.025051134 0.003911407 -0.026442828 0.035511326
000240 ab 22 ef bc 43 c0 61 3c 8a d2 f4 3c 1b 41 03 3c
       -0.029191336 0.013778749 0.02988555 0.008011128
000250 c8 73 38 bd 59 6c 77 3b 5b 10 cc bc d1 fa 49 bd
       -0.045032293 0.003775379 -0.024910143 -0.049311463
000260 dc 6e 15 bd bb b0 4c 3b b0 d1 17 3d 8d a7 de bb
       -0.036482677 0.003123327 0.037065208 -0.006794876
000270 48 e8 6c 3c ad 42 8a 3b 77 ab 4d bd e5 b4 2d bd
       0.014459677 0.004219374 -0.05021235 -0.042408843
000280 2e 5c c8 3c 46 73 e7 3c e9 ec c9 bc fa a7 3c 3c
       0.024458017 0.028253209 -0.0246491 0.011514658
000290 eb 65 44 bc 5d c5 07 bc 9a e3 b8 3c d4 2b b5 bc
       -0.01198719 -0.008286801 0.022569466 -0.022115625
0002a0 51 50 bf 3c af 6f 9d 3c d0 c4 c4 3c e6 6d 99 bb
       0.023353728 0.019218294 0.024019629 -0.0046822904
0002b0 4c 97 4e bd fc 70 04 3d 6d f5 b4 bc 74 d6 cd 3c
       -0.050437257 0.032334313 -0.022089684 0.025126673
0002c0 6e 06 41 bd 81 d6 02 bd ec a7 2d 3a e7 bc 74 bc
       -0.047125272 -0.031942848 0.00066244486 -0.014937616
0002d0 1e df a9 bc 47 44 02 bd 7f 5d e0 3b 04 46 ed bb
       -0.020736273 -0.031803396 0.006847083 -0.0072410125
0002e0 fe 73 94 bb 1a 9a 47 bb f1 04 e0 3c 17 dc da bb
       -0.004530429 -0.0030456842 0.027346106 -0.006679069
0002f0 cb f2 a2 3c 10 d9 53 3c 04 0b f3 bc 4a 0a 91 bc
       0.019891163 0.01293017 -0.029668339 -0.017705102
000300 1a ec 38 3b 2b b8 9f 3c 13 02 24 3d 15 cd b3 bc
       0.00282169 0.019496998 0.04004104 -0.021948377
000310 38 23 c2 3b af d5 31 bd 3b e3 23 bb f4 6d 0d 3c
       0.0059246086 -0.043416675 -0.0025007266 0.008632172
000320 50 72 e3 3c f4 44 b0 3c 7f 5e 02 3d 55 0f 1c bd
       0.02776447 0.021517254 0.0318284 -0.03810056
000330 19 c0 37 bd 5d 47 2d bc f9 d4 8a bc 65 2b ef 3c
       -0.044860933 -0.010576096 -0.016947256 0.029195497
000340 bf 19 3b 3d 98 a6 04 3d ac 9c 05 bd ff 98 4a bd
       0.04567885 0.03238544 -0.032620117 -0.049462315
000350 f6 d9 5d 3c 63 bd 2e bd fd a3 10 bc f1 1f 2e bd
       0.0135407355 -0.042661082 -0.00882816 -0.04251093
000360 a0 c9 06 bd ac b8 b7 bc d4 5c 16 3d 8a 02 3c 3c
       -0.03290713 -0.022426926 0.03670962 0.011475215
000370 42 d2 0e bd fb 5c ca bc bc 88 9e bc c4 36 59 3b
       -0.034868486 -0.02470254 -0.01935231 0.0033144215
000380 f7 38 b3 3c 2a 0c 33 3d 13 02 73 ba e9 74 50 bc
       0.021877749 0.043712772 -0.00092700234 -0.012723186
000390 0c 04 d5 bc 32 7d f2 bc b4 14 5f b9 80 81 ab bc
       -0.026002906 -0.029600713 -0.0002127465 -0.020935774
0003a0 e1 0f bb 3c bc 0c d1 3c 85 48 26 3d e8 18 da bc
       0.02283472 0.025518768 0.040596504 -0.026623204
0003b0 75 02 e6 3c 6d 00 5f bc fe a6 3c bd 37 8b 05 3c
       0.028077343 -0.013610941 -0.046057694 0.008150867
0003c0 6d 74 c9 bc d2 a6 57 3d 7f 3b 19 3d 3d 65 a4 3c
       -0.024591649 0.052649327 0.037410256 0.020067805
0003d0 09 ac ab bc ff 35 3e bc de 92 14 3d ee 46 b3 bc
       -0.020956056 -0.011609553 0.036272876 -0.021884408
0003e0 06 48 4f bd f3 d3 33 3d 8a b1 fd 3c ae b6 5f 39
       -0.050605796 0.043903302 0.030968446 0.00021334991
0003f0 67 e8 35 bd af 9e b5 3c 5e e3 0f bc 68 8d 52 bb
       -0.04441109 0.022170393 -0.008782236 -0.0032127742
